…
Loss function used: CrossEntropyLoss()
Epochs: 40
Optimizer: Adam (
Parameter Group 0
    amsgrad: False
    betas: (0.9, 0.999)
    capturable: False
    differentiable: False
    eps: 1e-08
    foreach: None
    fused: None
    initial_lr: 0.001
    lr: 1.5625e-05
    maximize: False
    weight_decay: 0
)
==========================================================================================
Layer (type:depth-idx)                   Output Shape              Param #
==========================================================================================
superlight_cnn_v4                        [512, 9131]               --
├─inception_mfm: 1-1                     [512, 16, 128, 128]       --
│    └─mfm_v3: 2-1                       [512, 8, 128, 128]        --
│    │    └─Conv2d: 3-1                  [512, 16, 128, 128]       1,216
│    └─mfm_v3: 2-2                       [512, 8, 128, 128]        --
│    │    └─Conv2d: 3-2                  [512, 16, 128, 128]       2,368
├─inception_mfm: 1-2                     [512, 32, 64, 64]         --
│    └─mfm_v3: 2-3                       [512, 16, 64, 64]         --
│    │    └─Conv2d: 3-3                  [512, 32, 64, 64]         4,640
│    └─mfm_v3: 2-4                       [512, 16, 64, 64]         --
│    │    └─Conv2d: 3-4                  [512, 32, 64, 64]         12,832
├─group_v3: 1-3                          [512, 64, 32, 32]         --
│    └─mfm_v3: 2-5                       [512, 32, 32, 32]         --
│    │    └─Conv2d: 3-5                  [512, 64, 32, 32]         2,112
│    └─mfm_v3: 2-6                       [512, 64, 32, 32]         --
│    │    └─Conv2d: 3-6                  [512, 128, 32, 32]        36,992
├─group_v3: 1-4                          [512, 48, 16, 16]         --
│    └─mfm_v3: 2-7                       [512, 64, 16, 16]         --
│    │    └─Conv2d: 3-7                  [512, 128, 16, 16]        8,320
│    └─mfm_v3: 2-8                       [512, 48, 16, 16]         --
│    │    └─Conv2d: 3-8                  [512, 96, 16, 16]         55,392
├─group_v3: 1-5                          [512, 48, 16, 16]         --
│    └─mfm_v3: 2-9                       [512, 48, 16, 16]         --
│    │    └─Conv2d: 3-9                  [512, 96, 16, 16]         4,704
│    └─mfm_v3: 2-10                      [512, 48, 16, 16]         --
│    │    └─Conv2d: 3-10                 [512, 96, 16, 16]         41,568
├─mfm_v3: 1-6                            [512, 133]                --
│    └─Linear: 2-11                      [512, 266]                817,418
├─Linear: 1-7                            [512, 9131]               1,223,554
==========================================================================================
Total params: 2,211,116
Trainable params: 2,211,116
Non-trainable params: 0
Total mult-adds (Units.GIGABYTES): 102.67
==========================================================================================
Input size (MB): 100.66
Forward/backward pass size (MB): 4501.23
Params size (MB): 8.84
Estimated Total Size (MB): 4610.74
…
